     
 ID: Net1_v1 
 infomation: baseline -- stack then extract feature 
 Epoch number: 20 
 Batch size: 2 
 =======================

Net_1(
  (feature_extract): FeatureNet(
    (net): Sequential(
      (0): Conv2d_block(
        (net): Sequential(
          (0): Conv2d(6, 32, kernel_size=(3, 3), stride=(1, 1), padding=(1, 1))
          (1): BatchNorm2d(32, eps=1e-05, momentum=0.1, affine=True, track_running_stats=True)
          (2): ReLU(inplace)
        )
      )
      (1): Conv2d_block(
        (net): Sequential(
          (0): Conv2d(32, 64, kernel_size=(4, 4), stride=(2, 2), padding=(1, 1))
          (1): BatchNorm2d(64, eps=1e-05, momentum=0.1, affine=True, track_running_stats=True)
          (2): ReLU(inplace)
        )
      )
      (2): Conv2d_block(
        (net): Sequential(
          (0): Conv2d(64, 128, kernel_size=(3, 3), stride=(1, 1), padding=(1, 1))
          (1): BatchNorm2d(128, eps=1e-05, momentum=0.1, affine=True, track_running_stats=True)
          (2): ReLU(inplace)
        )
      )
      (3): Conv2d_block(
        (net): Sequential(
          (0): Conv2d(128, 256, kernel_size=(4, 4), stride=(2, 2), padding=(1, 1))
          (1): BatchNorm2d(256, eps=1e-05, momentum=0.1, affine=True, track_running_stats=True)
          (2): ReLU(inplace)
        )
      )
      (4): Conv2d_block(
        (net): Sequential(
          (0): Conv2d(256, 256, kernel_size=(3, 3), stride=(1, 1), padding=(1, 1))
          (1): BatchNorm2d(256, eps=1e-05, momentum=0.1, affine=True, track_running_stats=True)
          (2): ReLU(inplace)
        )
      )
      (5): Conv2d_block(
        (net): Sequential(
          (0): Conv2d(256, 320, kernel_size=(4, 4), stride=(2, 2), padding=(1, 1))
          (1): BatchNorm2d(320, eps=1e-05, momentum=0.1, affine=True, track_running_stats=True)
          (2): ReLU(inplace)
        )
      )
    )
  )
  (disp_extracct): DispNet(
    (net): Sequential(
      (0): Conv2d_block(
        (net): Sequential(
          (0): Conv2d(320, 256, kernel_size=(3, 3), stride=(1, 1), padding=(1, 1))
          (1): BatchNorm2d(256, eps=1e-05, momentum=0.1, affine=True, track_running_stats=True)
          (2): ReLU(inplace)
        )
      )
      (1): ConvTranspose2d_block(
        (net): Sequential(
          (0): ConvTranspose2d(256, 256, kernel_size=(4, 4), stride=(2, 2), padding=(1, 1))
          (1): BatchNorm2d(256, eps=1e-05, momentum=0.1, affine=True, track_running_stats=True)
          (2): ReLU(inplace)
        )
      )
      (2): Conv2d_block(
        (net): Sequential(
          (0): Conv2d(256, 256, kernel_size=(3, 3), stride=(1, 1), padding=(1, 1))
          (1): BatchNorm2d(256, eps=1e-05, momentum=0.1, affine=True, track_running_stats=True)
          (2): ReLU(inplace)
        )
      )
      (3): ConvTranspose2d_block(
        (net): Sequential(
          (0): ConvTranspose2d(256, 256, kernel_size=(4, 4), stride=(2, 2), padding=(1, 1))
          (1): BatchNorm2d(256, eps=1e-05, momentum=0.1, affine=True, track_running_stats=True)
          (2): ReLU(inplace)
        )
      )
      (4): Conv2d_block(
        (net): Sequential(
          (0): Conv2d(256, 256, kernel_size=(3, 3), stride=(1, 1), padding=(1, 1))
          (1): BatchNorm2d(256, eps=1e-05, momentum=0.1, affine=True, track_running_stats=True)
          (2): ReLU(inplace)
        )
      )
      (5): ConvTranspose2d_block(
        (net): Sequential(
          (0): ConvTranspose2d(256, 256, kernel_size=(4, 4), stride=(2, 2), padding=(1, 1))
          (1): BatchNorm2d(256, eps=1e-05, momentum=0.1, affine=True, track_running_stats=True)
          (2): ReLU(inplace)
        )
      )
      (6): Conv2d_block(
        (net): Sequential(
          (0): Conv2d(256, 192, kernel_size=(3, 3), stride=(1, 1), padding=(1, 1))
          (1): BatchNorm2d(192, eps=1e-05, momentum=0.1, affine=True, track_running_stats=True)
        )
      )
      (7): Softmax()
    )
  )
  (regression): DisparityRegression()
) batch loss: 94.80308532714844 
 batch loss: 92.91494750976562 
 batch loss: 91.3719253540039 
 batch loss: 90.41239929199219 
 batch loss: 88.85323333740234 
 batch loss: 85.96092987060547 
 batch loss: 86.80821228027344 
 batch loss: 84.80236053466797 
…
