     
 ID: Net0_v1 
 parameter number: 8225600
 infomation: baseline -- extract feature then stack 
 Epoch number: 20 
 Batch size: 2 
 =======================

Net_0(
  (feature_extract): FeatureNet(
    (net): Sequential(
      (0): Conv2d_block(
        (net): Sequential(
          (0): Conv2d(3, 32, kernel_size=(3, 3), stride=(1, 1), padding=(1, 1))
          (1): BatchNorm2d(32, eps=1e-05, momentum=0.1, affine=True, track_running_stats=True)
          (2): ReLU(inplace)
        )
      )
      (1): Conv2d_block(
        (net): Sequential(
          (0): Conv2d(32, 64, kernel_size=(4, 4), stride=(2, 2), padding=(1, 1))
          (1): BatchNorm2d(64, eps=1e-05, momentum=0.1, affine=True, track_running_stats=True)
          (2): ReLU(inplace)
        )
      )
      (2): Conv2d_block(
        (net): Sequential(
          (0): Conv2d(64, 128, kernel_size=(3, 3), stride=(1, 1), padding=(1, 1))
          (1): BatchNorm2d(128, eps=1e-05, momentum=0.1, affine=True, track_running_stats=True)
          (2): ReLU(inplace)
        )
      )
      (3): Conv2d_block(
        (net): Sequential(
          (0): Conv2d(128, 256, kernel_size=(4, 4), stride=(2, 2), padding=(1, 1))
          (1): BatchNorm2d(256, eps=1e-05, momentum=0.1, affine=True, track_running_stats=True)
          (2): ReLU(inplace)
        )
      )
      (4): Conv2d_block(
        (net): Sequential(
          (0): Conv2d(256, 256, kernel_size=(3, 3), stride=(1, 1), padding=(1, 1))
          (1): BatchNorm2d(256, eps=1e-05, momentum=0.1, affine=True, track_running_stats=True)
          (2): ReLU(inplace)
        )
      )
      (5): Conv2d_block(
        (net): Sequential(
          (0): Conv2d(256, 256, kernel_size=(4, 4), stride=(2, 2), padding=(1, 1))
          (1): BatchNorm2d(256, eps=1e-05, momentum=0.1, affine=True, track_running_stats=True)
          (2): ReLU(inplace)
        )
      )
    )
  )
  (disp_extract): DispNet(
    (net): Sequential(
      (0): Conv2d_block(
        (net): Sequential(
          (0): Conv2d(512, 256, kernel_size=(3, 3), stride=(1, 1), padding=(1, 1))
          (1): BatchNorm2d(256, eps=1e-05, momentum=0.1, affine=True, track_running_stats=True)
          (2): ReLU(inplace)
        )
      )
      (1): ConvTranspose2d_block(
        (net): Sequential(
          (0): ConvTranspose2d(256, 256, kernel_size=(4, 4), stride=(2, 2), padding=(1, 1))
          (1): BatchNorm2d(256, eps=1e-05, momentum=0.1, affine=True, track_running_stats=True)
          (2): ReLU(inplace)
        )
      )
      (2): Conv2d_block(
        (net): Sequential(
          (0): Conv2d(256, 256, kernel_size=(3, 3), stride=(1, 1), padding=(1, 1))
          (1): BatchNorm2d(256, eps=1e-05, momentum=0.1, affine=True, track_running_stats=True)
          (2): ReLU(inplace)
        )
      )
      (3): ConvTranspose2d_block(
        (net): Sequential(
          (0): ConvTranspose2d(256, 256, kernel_size=(4, 4), stride=(2, 2), padding=(1, 1))
          (1): BatchNorm2d(256, eps=1e-05, momentum=0.1, affine=True, track_running_stats=True)
          (2): ReLU(inplace)
        )
      )
      (4): Conv2d_block(
        (net): Sequential(
          (0): Conv2d(256, 256, kernel_size=(3, 3), stride=(1, 1), padding=(1, 1))
          (1): BatchNorm2d(256, eps=1e-05, momentum=0.1, affine=True, track_running_stats=True)
          (2): ReLU(inplace)
        )
      )
      (5): ConvTranspose2d_block(
        (net): Sequential(
          (0): ConvTranspose2d(256, 256, kernel_size=(4, 4), stride=(2, 2), padding=(1, 1))
          (1): BatchNorm2d(256, eps=1e-05, momentum=0.1, affine=True, track_running_stats=True)
          (2): ReLU(inplace)
        )
      )
      (6): Conv2d_block(
        (net): Sequential(
          (0): Conv2d(256, 192, kernel_size=(3, 3), stride=(1, 1), padding=(1, 1))
          (1): BatchNorm2d(192, eps=1e-05, momentum=0.1, affine=True, track_running_stats=True)
        )
      )
      (7): Softmax()
    )
  )
  (regression): DisparityRegression()
) batch loss: 94.97442626953125 
 batch loss: 94.02816009521484 
 batch loss: 91.8077163696289 
 batch loss: 89.20056915283203 
 batch loss: 88.62312316894531 
 batch loss: 85.37738800048828 
 batch loss: 83.75454711914062 
 batch loss: 82.40404510498047 
…
