      
 ID: Net_bf_v1 
 parameter number: 8237658 
 infomation: Brute Force -- fit left image to its disparity 
 Epoch number: 20 
 Batch size: 2 
 =======================

Net_bf(
  (feature_extract): FeatureNet(
    (net): Sequential(
      (0): Conv2dBlock(
        (net): Sequential(
          (0): Conv2d(3, 32, kernel_size=(3, 3), stride=(1, 1), padding=(1, 1))
          (1): BatchNorm2d(32, eps=1e-05, momentum=0.1, affine=True, track_running_stats=True)
          (2): ReLU(inplace)
        )
      )
      (1): Conv2dBlock(
        (net): Sequential(
          (0): Conv2d(32, 64, kernel_size=(4, 4), stride=(2, 2), padding=(1, 1))
          (1): BatchNorm2d(64, eps=1e-05, momentum=0.1, affine=True, track_running_stats=True)
          (2): ReLU(inplace)
        )
      )
      (2): Conv2dBlock(
        (net): Sequential(
          (0): Conv2d(64, 128, kernel_size=(3, 3), stride=(1, 1), padding=(1, 1))
          (1): BatchNorm2d(128, eps=1e-05, momentum=0.1, affine=True, track_running_stats=True)
          (2): ReLU(inplace)
        )
      )
      (3): Conv2dBlock(
        (net): Sequential(
          (0): Conv2d(128, 256, kernel_size=(4, 4), stride=(2, 2), padding=(1, 1))
          (1): BatchNorm2d(256, eps=1e-05, momentum=0.1, affine=True, track_running_stats=True)
          (2): ReLU(inplace)
        )
      )
      (4): Conv2dBlock(
        (net): Sequential(
          (0): Conv2d(256, 256, kernel_size=(3, 3), stride=(1, 1), padding=(1, 1))
          (1): BatchNorm2d(256, eps=1e-05, momentum=0.1, affine=True, track_running_stats=True)
          (2): ReLU(inplace)
        )
      )
      (5): Conv2dBlock(
        (net): Sequential(
          (0): Conv2d(256, 350, kernel_size=(4, 4), stride=(2, 2), padding=(1, 1))
          (1): BatchNorm2d(350, eps=1e-05, momentum=0.1, affine=True, track_running_stats=True)
          (2): ReLU(inplace)
        )
      )
    )
  )
  (disp_extract): DispNet(
    (net): Sequential(
      (0): Conv2dBlock(
        (net): Sequential(
          (0): Conv2d(350, 256, kernel_size=(3, 3), stride=(1, 1), padding=(1, 1))
          (1): BatchNorm2d(256, eps=1e-05, momentum=0.1, affine=True, track_running_stats=True)
          (2): ReLU(inplace)
        )
      )
      (1): ConvTranspose2dBlock(
        (net): Sequential(
          (0): ConvTranspose2d(256, 256, kernel_size=(4, 4), stride=(2, 2), padding=(1, 1))
          (1): BatchNorm2d(256, eps=1e-05, momentum=0.1, affine=True, track_running_stats=True)
          (2): ReLU(inplace)
        )
      )
      (2): Conv2dBlock(
        (net): Sequential(
          (0): Conv2d(256, 256, kernel_size=(3, 3), stride=(1, 1), padding=(1, 1))
          (1): BatchNorm2d(256, eps=1e-05, momentum=0.1, affine=True, track_running_stats=True)
          (2): ReLU(inplace)
        )
      )
      (3): ConvTranspose2dBlock(
        (net): Sequential(
          (0): ConvTranspose2d(256, 256, kernel_size=(4, 4), stride=(2, 2), padding=(1, 1))
          (1): BatchNorm2d(256, eps=1e-05, momentum=0.1, affine=True, track_running_stats=True)
          (2): ReLU(inplace)
        )
      )
      (4): Conv2dBlock(
        (net): Sequential(
          (0): Conv2d(256, 256, kernel_size=(3, 3), stride=(1, 1), padding=(1, 1))
          (1): BatchNorm2d(256, eps=1e-05, momentum=0.1, affine=True, track_running_stats=True)
          (2): ReLU(inplace)
        )
      )
      (5): ConvTranspose2dBlock(
        (net): Sequential(
          (0): ConvTranspose2d(256, 256, kernel_size=(4, 4), stride=(2, 2), padding=(1, 1))
          (1): BatchNorm2d(256, eps=1e-05, momentum=0.1, affine=True, track_running_stats=True)
          (2): ReLU(inplace)
        )
      )
      (6): Conv2dBlock(
        (net): Sequential(
          (0): Conv2d(256, 192, kernel_size=(3, 3), stride=(1, 1), padding=(1, 1))
          (1): BatchNorm2d(192, eps=1e-05, momentum=0.1, affine=True, track_running_stats=True)
        )
      )
      (7): Softmax()
    )
  )
  (regression): DisparityRegression()
)
 batch loss: 94.24833679199219 
 batch loss: 92.31184387207031 
 batch loss: 90.49281311035156 
 batch loss: 89.49845886230469 
 batch loss: 86.26387023925781 
 batch loss: 84.35014343261719 
 batch loss: 86.31543731689453 
 batch loss: 84.3739242553711 
…
